DataBase/Tasks.pth (torch, 2951 bytes, 6 tensors)

l1.weight f4 [8, 9]
00000000: 5b7f 2f3f 2fae e0be abd3 89be 0d84 e3be
00000010: 3a73 1a3f baa8 a3be 045e d2be 958f e3be
00000020: 1b2d 583f 03c0 a2be 6b64 a8be 1517 223e
00000030: 892b 473f a253 96be 38df 243f e608 b03e
00000040: 6ebd c83e 071f 06be a704 12bf ee29 9dbe
00000050: bb80 a7be 65b7 cb3e 0e4e 11bf c7bc 233f
00000060: 7ad2 253f 6a58 ef3e 5b15 11bf 8b31 4a3e
00000070: f4c5 10bf ec93 03bf 025a f53d 4216 963e
00000080: ea3d 2d3f 6506 3a3f 3b3a c33e 30f6 d1bd
00000090: 7daa 803e d522 babe a838 afbe 596c 9f3e
000000a0: d642 0a3e 7d77 e63e 9870 e43e af1a 213f
000000b0: 1bb7 1a3f 3528 9b3e a477 fd3e 16d6 783f
000000c0: ac7d 51bf fa73 933e cfc7 b2be 7e8d c0be
000000d0: 6311 1abf 0070 08bd c52f 853e 4adf 4d3e
000000e0: b6ba 38be 9e35 20be 666e 3f3e fb9d a23e
000000f0: ecbb e53d 87a0 903e b473 9d3d 7ec4 f2bd
00000100: 1ed5 853e 8851 4f3f dd5a 023f 415e 49be
00000110: 8ad1 bf3e 1339 6cbe ab32 79be 9463 9fbe
0.68553704 -0.43882892 -0.26919302 -0.44436684 0.6033207 -0.31964666 -0.41087353 -0.44445482
0.84443825 -0.31787118 -0.32889113 0.15829118 0.77800804 -0.29360682 0.64403105 0.3438179
0.39207023 -0.13097773 -0.5703835 -0.30696052 -0.327154 0.39788356 -0.56759727 0.63959926
0.64774287 0.46747142 -0.5667321 0.19745462 -0.5655205 -0.51397586 0.11980058 0.29313856
0.676726 0.7266601 0.38130364 -0.10252035 0.25130072 -0.363547 -0.34222913 0.3113735
0.13502058 0.45013037 0.44617152 0.6293134 0.60435647 0.30304113 0.4950534 0.9720167
-0.81832385 0.2879942 -0.34918067 -0.3760795 -0.6018278 -0.033309937 0.26013008 0.2010471
-0.18039975 -0.15645453 0.18694457 0.31761155 0.11217484 0.28247473 0.07688084 -0.11853884
0.26139158 0.8098378 0.50919896 -0.19664861 0.37464553 -0.23068647 -0.24335735 -0.3113066

l1.bias f4 [8]
00000000: 8553 e33e ad4a 963e cd1e 113f fa82 213f
00000010: 9b4b f53e 914f 513f d50d a9be 60a7 613e
0.44399658 0.29353848 0.56687623 0.6309048 0.47909245 0.81762034 -0.33018366 0.22036505

l2.weight f4 [8, 8]
00000000: 318e 27bf 13dc 583f 368a 283f d7ac 0e3f
00000010: ab2a 913e 5daa 513e f697 88be 3e3f 4c3f
00000020: fba1 413f 7e7c 24be 4781 c7be 737f bb3e
00000030: adf9 d13c dab9 2dbe 2079 94be 8f90 a2be
00000040: 903a c13d eee0 e2bd a80f 013d 2e64 2b3e
00000050: 1178 96be fd37 58be 7a91 113e 76c7 263e
00000060: 0e4c c0be 1a43 d53e 59b9 6a3f c630 7b3f
00000070: b44f 3f3f 5bb2 f7be 5d69 8cbe b50c 193d
00000080: d351 3c3f c2b9 84be 5468 25bf 2d8a 10be
00000090: d745 293e 7620 af3f 8243 15be b8ae 163f
000000a0: 25d0 493f 9026 a23e 57fd c63e abf8 953f
000000b0: 631d 923f 3eaa c0be c595 833e 6e3a 5bbe
000000c0: e23b 7dbe ea50 8b3e 4a1d 543d 2f4b 363e
000000d0: 6ff0 66bc 9a9e c4bd 8f2a 9c3e 273c 95be
000000e0: f446 503f 4e64 e4be 7c3b 49bf e2c2 0e3f
000000f0: 54ee 2f3f d440 c33d 74c7 6fbe ad9a 94bd
-0.6545134 0.84710807 0.65835893 0.5573248 0.28352866 0.20475145 -0.26678437 0.79784
0.7563779 -0.16063115 -0.38965818 0.36620674 0.02563175 -0.16965428 -0.2899866 -0.31750914
0.09434998 -0.11078058 0.03150907 0.16737434 -0.29388478 -0.21115108 0.14215651 0.16287026
-0.37558025 0.41652757 0.9168907 0.981213 0.7473099 -0.48378262 -0.27424136 0.037365634
0.73562354 -0.25922972 -0.6461232 -0.1411521 0.16530548 1.3681781 -0.14576533 0.5886035
0.7883323 0.31670046 0.38865158 1.1716512 1.1415218 -0.37629884 0.25700203 -0.21409008
-0.24729875 0.2721017 0.051785745 0.17802118 -0.01409541 -0.09600563 0.3050122 -0.29147455
0.81358266 -0.44607776 -0.7860639 0.5576612 0.68723035 0.09533849 -0.23415929 -0.072560646

l2.bias f4 [8]
00000000: 9701 603e 6650 903e 7442 a4be 98c5 693e
00000010: 9c96 233f 7ebd 6b3e 8f34 d4be e4ad 2dbc
0.21875606 0.2818634 -0.3208195 0.22829282 0.63901687 0.23021504 -0.4144635 -0.010600541

l3.weight f4 [3, 8]
00000000: 92d9 773e eacb 9bbe 10b0 cc3c 6968 68be
00000010: 0f06 ac3e 1f51 81bf 9e0f 77be 3651 91bf
00000020: 1a30 743f 7c9d 89be 46e9 9dbe edb8 193f
00000030: b4b9 b7bf 7c9c 543d a2cb 41be 86cd 06bf
00000040: 2f87 9ebf ffab 103f ecc7 8a3d 0430 683d
00000050: b546 96bd 9f93 213e 79e3 b03d 66ce 8b3f
0.2420409 -0.30429012 0.024986297 -0.2269608 0.33598372 -1.0102881 -0.24127051 -1.1352909
0.953859 -0.26877964 -0.30842036 0.600478 -1.4353547 0.051907048 -0.18925336 -0.52657354
-1.2385005 0.56512445 0.06776413 0.056686416 -0.07337705 0.15778969 0.08637137 1.0922363

l3.bias f4 [3]
00000000: f45a e73e b0dc 43be 3efe dbbe
0.4518658 -0.19127154 -0.4296741
